checkpoint_actor.pth (torch_old, 81955 bytes, 6 tensors)

fc1.weight f4 [128, 24]
0.06309052 2.3727114 -0.003102109 0.7798219 1.5146209 1.3017269 0.03462737 0.7464915
0.25971785 2.535356 -0.028807346 0.007922085 0.27277938 0.4182189 -0.011330523 0.0344294
0.6974259 2.6328137 0.090834856 -0.14227991 -1.1257355 -0.19278844 0.23063901 -0.1885317
-0.2266238 4.0537257 0.08869178 0.039839197 -0.29056957 0.50468737 -0.07272213 0.18331948
0.011793242 4.189679 0.04785543 -0.00787794 -0.12982553 -0.73520035 -0.028806936 0.09968371
-0.012711585 3.892616 -0.07159454 -0.5118962 -0.32841933 -1.613575 -0.15683372 -0.55759865
0.14021558 1.1107239 0.17115258 0.45300674 -0.9551638 -2.068425 0.20944051 0.5771468
-0.081479155 0.8169351 -0.048445925 -0.26851648 0.5448875 -1.5417626 0.016769024 -0.36763382
0.121067956 1.1711988 0.26592207 -0.006608014 1.6467862 -0.9450888 0.28413406 -0.023519095
0.41300553 0.5229544 -0.09038156 0.15238443 -0.90453076 0.055639505 0.0038922871 0.24432187
1.0886639 0.4715622 0.043110706 -0.36951435 -1.2196568 0.5087064 0.020720782 -0.45012385
1.3336008 0.6183644 -0.07926709 0.626237 -1.3489606 1.1025494 0.08315939 0.5720301
0.051581647 -0.7836543 0.0382376 -0.3531818 0.4309886 -0.0037395968 0.010537575 -0.28394794
0.21972777 -0.5843774 -0.043887287 0.32217616 -0.83302945 -0.42966628 -0.004692626 0.3827487
0.7436974 -0.5879827 -0.0021204064 -0.9921485 -1.8211721 -0.785086 0.068079665 -1.0647146
0.02227706 -0.061258696 -0.037355497 0.06976753 -1.3634634 -1.3087482 0.074591175 0.16698074
-0.16326141 0.008962739 0.11964882 -0.082885824 -0.07728048 0.12419857 -0.033919495 -0.07026418
0.052516703 0.2851829 0.06901039 0.17770593 1.332931 1.2702253 -0.00093598804 0.2098458
0.8648311 1.4530488 0.31030327 0.785906 -0.11169967 -0.6380535 0.1755584 0.81016636
1.1113664 1.8933603 -0.16223556 0.5713683 -0.23066485 0.05074009 -0.16923201 0.5295796
1.1554576 2.3107948 -0.15059729 0.6208423 -0.87845975 1.2805945 -0.16356567 0.6936151
0.7764178 -0.031033004 -0.05064008 -0.22814277 1.1538342 -1.1042035 0.0014584275 -0.12606613
0.36473516 -0.09471761 0.042173244 0.14061175 1.1771554 0.108804 -0.04066762 0.13946961
0.75738317 0.29425332 -0.15933487 0.6050212 0.615475 2.0716035 -0.13659601 0.6089344
0.35799396 -0.14918654 -0.0992809 -0.21092483 0.985656 -2.463175 -0.17892845 -0.17872593
0.5658489 0.053634524 -0.2767247 -0.58310354 0.6415409 -1.7744572 -0.24197556 -0.4537426
0.7758765 0.2025992 0.20927273 -0.848966 -0.108475596 -0.1347211 0.12641454 -0.8086798
-0.5099137 2.8126986 -0.03880624 0.49166548 -0.118848525 -0.67373884 -0.110268116 0.51623815
-0.43487918 2.999312 -0.080608666 0.07879453 -0.029756619 -2.156695 -0.16356748 0.068724275
-0.3512059 3.1681678 0.057450432 0.13578594 0.076422974 -4.2583385 0.043856714 -0.008775328
-0.22295558 2.268026 -0.08877384 -0.07222059 0.12544546 -0.6710282 -0.017131757 -0.105724566
-0.008216844 2.1623902 -0.07056121 -0.9117173 0.042757038 -1.3520555 -0.011116554 -0.94650954
00000000: 9a35 813d 81da 1740 c14c 4bbb 68a2 473f
00000010: 19df c13f fd9e a63f 6ed5 0d3d 111a 3f3f
00000020: bdf9 843e 4643 2240 62fd ebbc a2cb 013c
00000030: bda9 8b3e ca20 d63e a8a3 39bc d805 0d3d
00000040: 818a 323f 0580 2840 a007 ba3d d3b1 11be
00000050: 1a18 90bf 556a 45be a22c 6c3e 740e 41be
00000060: 1210 68be 1fb8 8140 09a4 b53d 6d2e 233d
00000070: 89c5 94be 3133 013f 57ef 94bd 1ab8 3b3e
00000080: 7138 413c da11 8640 0e04 443d 7a12 01bc
00000090: fcf0 04be 1736 3cbf 86fc ebbc f926 cc3d
000000a0: 4044 50bc 9f20 7940 28a0 92bd a10b 03bf
000000b0: 9426 a8be a089 cebf 0599 20be c9be 0ebf
000000c0: ac94 0f3e 332c 8e3f 9f42 2f3e 80f0 e73e
000000d0: 9d85 74bf 1361 04c0 9377 563e e5bf 133f
000000e0: 8bde a6bd a922 513f 3c6f 46bd fe7a 89be
000000f0: bf7d 0b3f 7a58 c5bf 315f 893c 803a bcbe
00000100: 7af2 f73d d8e9 953f f026 883e 0a88 d8bb
00000110: e4c9 d23f 57f1 71bf 057a 913e 1eab c0bc
00000120: 7675 d33e 57e0 053f f819 b9bd aa0a 1c3e
00000130: 548f 67bf 40e6 633d be15 7f3b 832f 7a3e
00000140: 5759 8b3f 9a70 f13e da94 303d fc30 bdbe
00000150: b71d 9cbf 953a 023f a1be a93c a276 e6be
00000160: 6eb3 aa3f 214d 1e3f c956 a2bd 1151 203f
00000170: beaa acbf 5720 8d3f 784f aa3d 9170 123f
00000180: 4747 533d 919d 48bf 089f 1c3d 3fd4 b4be
00000190: 8aaa dc3e 0614 75bb cba5 2c3c a061 91be
000001a0: 5100 613e c299 15bf 28c3 33bd 46f4 a43e
000001b0: 6b41 55bf 38fd dbbe 9ac4 99bb a3f7 c33e
000001c0: f462 3e3f 0986 16bf 84f6 0abb 72fd 7dbf
000001d0: 2b1c e9bf 65fb 48bf 5a6d 8b3d 9148 88bf
000001e0: 627e b63c 66ea 7abd 1402 19bd 47e2 8e3d
000001f0: f885 aebf 1085 a7bf 42c3 983d 00fd 2a3e
00000200: 002e 27be 74d8 123c 710a f53d 0bc0 a9bd
00000210: 3a45 9ebd d25b fe3d 2bef 0abd abe6 8fbd
00000220: c11b 573d 7e03 923e 5255 8d3d 8bf8 353e
00000230: 7c9d aa3f be96 a23f 185d 75ba d1e1 563e
00000240: 9265 5d3f 81fd b93f 12e0 9e3e 2331 493f
00000250: ccc2 e4bd 7957 23bf 95c5 333e 1067 4f3f
00000260: 4141 8e3f a159 f23f 1421 26be 3145 123f
00000270: 6833 6cbe d7d4 4f3d 284b 2dbe 8792 073f
00000280: 09e6 933f 10e4 1340 2d36 1abe 85ef 1e3f
00000290: bde2 60bf 85ea a33f c27d 27be c290 313f
000002a0: 51c3 463f ed38 febc f96b 4fbd 429e 69be
000002b0: d7b0 933f 8a56 8dbf b528 bf3a 7b17 01be
000002c0: 91be ba3e 4efb c1bd dabd 2c3d 87fc 0f3e
000002d0: 07ad 963f a2d4 de3d 1793 26bd 1fd1 0e3e
000002e0: dde3 413f 5fa8 963e ae28 23be abe2 1a3f
000002f0: c58f 1d3f 2795 0440 d3df 0bbe 20e3 1b3f
00000300: fc4a b73e 5bc4 18be c953 cbbd aefc 57be
00000310: f453 7c3f a9a4 1dc0 0539 37be ee03 37be
00000320: 79db 103f e0af 5b3d dcae 8dbe 4646 15bf
00000330: 063c 243f 6a21 e3bf 71c8 77be f350 e8be
00000340: d89f 463f 2a76 4f3e 974b 563e d655 59bf
00000350: 7428 debd 54f4 09be d072 013e a405 4fbf
00000360: b489 02bf 4103 3440 4bf3 1ebd 94bb fb3e
00000370: db66 f3bd 267a 2cbf 40d4 e1bd 2f28 043f
00000380: 7ca8 debe baf4 3f40 2816 a5bd 075f a13d
00000390: 27c4 f3bc 4a07 0ac0 3c7e 27be 50bf 8c3d
000003a0: 42d1 b3be 43c3 4a40 2551 6b3d 780b 0b3e
000003b0: a683 9c3d 4f44 88c0 19a3 333d 65c6 0fbc
000003c0: 784e 64be 5727 1140 0fcf b5bd 64e8 93bd
000003d0: c674 003e 81c8 2bbf e657 8cbc 1f86 d8bd
000003e0: f19f 06bc 9a64 0a40 6582 90bd 4e66 69bf
000003f0: 0122 2f3d 2810 adbf 3522 36bc 734e 72bf

fc1.bias f4 [128]
-0.6737452 -0.50472647 -0.32738784 -1.341475 -0.8154947 -0.4997946 -0.7563351 -0.5252135
-0.28741363 0.16340658 -0.9461179 -1.0272254 -1.6127732 -1.0618417 0.1360032 -1.2020818
-1.0842254 -0.041111503 -1.0837207 0.630143 -1.2430294 -0.021406403 -1.018319 -0.16420755
0.38885754 -0.8394349 -0.18884602 -1.0655652 -0.7814028 -1.6803132 0.28678626 -1.4843917
-0.20899282 -0.23906659 -0.840712 -0.34780473 -0.89185673 -0.13274835 -0.61967003 -0.009281468
-0.2102194 -1.0644464 0.4296413 -1.0434799 -0.28350514 -0.87587523 -0.5965945 -0.013742968
-0.6285201 -0.08523594 -0.51559734 -1.1104951 -0.68183607 -0.92811286 0.31383267 0.12979402
0.4871609 0.0037686897 -0.9256142 -0.7918545 -1.3635601 -0.36720303 -0.31266302 -0.53410774
-0.15763278 0.5115452 -0.26619762 -0.29049638 -0.6876285 -0.7118668 -0.976907 -0.62742764
-0.4569076 -0.84235364 -0.1241387 -1.9141496 -0.4818203 -0.39923647 -0.0686851 0.056563623
-1.1295816 -0.18279049 -1.2084448 -0.17806928 -0.37690604 -0.4350625 -1.2280008 0.43790257
-0.30979052 0.15850256 -1.210377 -0.30877483 -0.92019576 -0.4435515 -0.5999957 -1.146663
-0.7327348 0.70491254 -0.42722642 -0.2111932 0.055903487 -0.20918927 0.00746158 -1.6520205
-0.3839365 1.1651602 -0.10967999 -0.8435296 -0.40410766 -1.0131338 -1.0441872 -0.90056354
-0.98054594 -0.6166026 -0.27653095 -0.46785402 -1.4198134 -0.48151007 0.027216004 -0.74093926
-0.58459014 -0.9059271 0.19511871 -0.68616605 -0.14997092 0.88604254 -0.7569605 -0.5381013
00000000: 917a 2cbf c135 01bf 619f a7be 74b5 abbf
00000010: 43c4 50bf 14e5 ffbe 2d9f 41bf 6474 06bf
00000020: e127 93be 0e54 273e c834 72bf 1f7c 83bf
00000030: 5a6f cebf 6eea 87bf 6c44 0b3e d1dd 99bf
00000040: e6c7 8abf 8964 28bd 5cb7 8abf 0d51 213f
00000050: 961b 9fbf 7b5c afbc 4758 82bf 0626 28be
00000060: 5618 c73e 35e5 56bf da60 41be 7164 88bf
00000070: 040a 48bf 8114 d7bf a6d5 923e 8c00 bebf
00000080: 3702 56be dfcd 74be e738 57bf 7613 b2be
00000090: b950 64bf 2fef 07be b2a2 1ebf 4c11 18bc
000000a0: c143 57be c83f 88bf f2f9 db3e c090 85bf
000000b0: 9627 91be 5c39 60bf 6bba 18bf 302a 61bc
000000c0: b1e6 20bf 2e90 aebd 30fe 03bf b424 8ebf
000000d0: cf8c 2ebf ce98 6dbf adae a03e b9e8 043e
000000e0: 276d f93e 1ffc 763b 0df5 6cbf fab6 4abf
000000f0: 2389 aebf 0902 bcbe 5e15 a0be 49bb 08bf
00000100: 7d6a 21be a0f4 023f 0e4b 88be f1bb 94be
00000110: 6c08 30bf e73c 36bf 9416 7abf 199f 20bf
00000120: cbef e9be 7da4 57bf 6e3c febd db02 f5bf
00000130: 26b1 f6be b968 ccbe c6aa 8cbd 42af 673d
00000140: 2196 90bf 6e2d 3bbe 52ae 9abf cb57 36be
00000150: d4f9 c0be 83c0 debe 212f 9dbf c434 e03e
00000160: dd9c 9ebe 7f4e 223e a2ed 9abf bc17 9ebe
00000170: f391 6bbf 2f19 e3be 5199 19bf dac5 92bf
00000180: 8294 3bbf 2675 343f 6cbd dabe 0843 58be
00000190: 0efb 643d b635 56be 4580 f43b 6875 d3bf
000001a0: 5393 c4be f823 953f e79f e0bd 8ef1 57bf
000001b0: 33e7 cebe 5eae 81bf eda7 85bf 558b 66bf
000001c0: 0f05 7bbf abd9 1dbf 7795 8dbe 908a efbe
000001d0: 72bc b5bf 7d88 f6be 19f4 de3c 32ae 3dbf
000001e0: b3a7 15bf d7ea 67bf 33cd 473e 94a8 2fbf
000001f0: fa91 19be afd3 623f 2ac8 41bf 02c1 09bf

fc2.weight f4 [128, 128]
0.76387423 0.392461 0.3426354 0.6276758 -0.5517405 -0.41946995 -1.0361142 -0.18481438
-0.44023052 0.44866168 0.71893775 0.14210029 0.15337458 -0.37352625 -2.2605658 -0.4310803
0.06573732 0.37708345 -1.1423914 -1.4486463 -0.38711828 -0.60011375 -0.9146194 1.0885122
0.3429927 1.7631335 0.5292873 -0.4494822 0.3843186 -0.16062798 -0.65566283 1.1567099
-0.18430951 -0.19886683 -2.5776923 -1.285765 -0.67727 0.8377398 0.046168752 -0.55491674
0.44292948 0.110665984 0.79819626 -0.9765765 0.65614897 -0.36776978 0.72632897 0.56814885
-0.43972713 1.1301048 -0.24316342 0.009644811 -0.90484375 -0.83892494 -0.6833375 0.23556606
-1.0883232 -2.1036348 -0.018259684 0.73713124 -0.95339316 -0.67279387 -1.5123943 1.0245756
-0.47478876 -0.47034234 -1.0149679 0.7489549 0.69871396 0.5329925 0.28577858 -0.42582792
-1.0838455 1.355577 -0.95873284 -0.51067483 -0.30826896 0.6847509 0.18517263 -0.89674276
-0.5148076 -0.25967854 0.9591689 -0.646046 0.11483695 -0.37936786 -1.1646852 -0.24202016
-1.025167 1.040177 0.3226523 0.24043751 -1.9349517 0.8683131 0.005805249 -0.54523426
-0.16116762 -0.17952468 0.3803191 -0.767594 0.24678338 -1.7466727 0.82605535 -0.3536499
-0.26467103 0.14227365 0.025514383 -1.6202312 0.14021794 0.08795063 0.071381025 -0.102769464
0.18032831 0.81406623 -0.2712426 -0.6271439 0.7635562 0.3105375 -0.32885447 -1.1164495
0.08210716 0.36595786 -0.075970024 0.05235928 -0.14473414 -0.6800936 -0.093180336 -0.6919444
-1.5185676 0.35019484 -0.7252614 -0.14495434 -0.7113866 0.14824641 0.048524365 -0.8789324
-1.4304638 -0.21140654 -0.7627676 -0.05932588 0.2593666 -0.15736243 -0.32439837 -0.09173842
-1.6349227 0.31968623 0.761025 -1.8954564 -1.2022456 -0.16636737 -0.044728734 0.6587318
-0.09865465 -0.32762653 0.40364093 0.288374 0.17013681 0.11391103 -1.0537028 -0.5246551
-2.8184948 -0.5904403 -1.415072 -0.28706652 0.76173615 -0.61601305 0.15724848 -0.36963817
-1.1883792 -0.32101917 -1.1637461 -0.030766407 0.32654336 -0.6055587 -1.6195517 -0.6180883
0.029816734 -0.038438357 -1.2611305 -0.49289116 -0.96726036 0.28132924 -0.6960857 0.22972059
0.56767464 -0.42539108 0.078088604 -0.0038131813 0.23377869 -0.055367135 -0.73617595 0.5307355
0.25442022 -0.7334944 -0.54921067 0.61869574 -0.82597953 0.4070553 -0.83472013 -1.8270277
-0.4907554 0.022855101 0.40887156 0.58906126 -0.27543032 -0.60496527 -0.5837279 -0.36364844
0.40695974 -0.5320121 0.509339 -0.012105952 0.8888891 0.22175549 -0.6429434 -0.9624303
-1.7805989 -0.91239816 -0.31877545 0.7003205 -0.13126585 0.61890984 -0.47481373 1.0143235
0.021174956 0.49596533 -1.6735613 -1.461486 -1.267743 -0.2673174 -1.0721815 -0.46726575
-1.5683928 -1.0331551 0.68509656 0.67329603 0.6420447 0.2770595 0.23913687 0.31917676
-0.33636582 -0.014878071 -0.5252737 -0.2842818 -0.3043678 -0.8448681 -1.3213428 -0.09975054
-0.6789528 -0.092822164 -0.24046303 -1.8137742 -1.0601307 -0.65787214 0.7602415 -0.41306472
00000000: 438d 433f a6f0 c83e e86d af3e 5caf 203f
00000010: de3e 0dbf c4c4 d6be 649f 84bf fb3f 3dbe
00000020: e565 e1be fcb6 e53e 4e0c 383f bd82 113e
00000030: 3a0e 1d3e d53e bfbe 1cad 10c0 8fb6 dcbe
00000040: 4aa1 863d 1511 c13e e239 92bf 3e6d b9bf
00000050: 5e34 c6be 0ea1 19bf 7f24 6abf 5e54 8b3f
00000060: bd9c af3e 5cae e13f 5f7f 073f 8822 e6be
00000070: 68c5 c43e a97b 24be 85d9 27bf 120f 943f
00000080: a2bb 3cbe bfa3 4bbe e9f8 24c0 f393 a4bf
00000090: 9161 2dbf 1e76 563f 721b 3d3d 060f 0ebf
000000a0: a7c7 e23e d9a4 e23d 9756 4c3f eb00 7abf
000000b0: 61f9 273f 524c bcbe b2f0 393f 3472 113f
000000c0: ea23 e1be 46a7 903f d5ff 78be 4505 1e3c
000000d0: d7a3 67bf c9c3 56bf 35ef 2ebf 3b38 713e
000000e0: 2d4e 8bbf f4a1 06c0 5595 95bc a2b4 3c3f
000000f0: 9311 74bf 383c 2cbf 2396 c1bf 4b25 833f
00000100: 8317 f3be b6d0 f0be 78ea 81bf 82bb 3f3f
00000110: ebde 323f 3272 083f 9251 923e 1e06 dabe
00000120: 73bb 8abf 8c83 ad3f 846f 75bf 96bb 02bf
00000130: 6ed5 9dbe d64b 2f3f e59d 3d3e ef90 65bf
00000140: 6eca 03bf 96f4 84be 188c 753f 4563 25bf
00000150: a32f eb3d 813c c2be 6814 95bf 22d4 77be
00000160: ac38 83bf 8524 853f af32 a53e 4035 763e
00000170: 7fac f7bf c449 5e3f f539 be3b 7994 0bbf
00000180: 2009 25be 51d5 37be 2fb9 c23e 0a81 44bf
00000190: c8b4 7c3e f992 dfbf 5d78 533f 9a11 b5be
000001a0: f682 87be 2fb0 113e 8a03 d13c bc63 cfbf
000001b0: 4b95 0f3e 761f b43d 3730 923d cc78 d2bd
000001c0: fca7 383e a566 503f 4fe0 8abe 818c 20bf
000001d0: 6b78 433f c5fe 9e3e 9d5f a8be d1e7 8ebf
000001e0: cc27 a83d d45e bb3e 2c96 9bbd af76 563d
000001f0: 3035 14be 9d1a 2ebf 55d5 bebd 4523 31bf
00000200: 6c60 c2bf bd4c b33e bbaa 39bf e96e 14be
00000210: 6f1d 36bf e8cd 173e 7cc1 463d b701 61bf
00000220: 7019 b7bf f57a 58be bd44 43bf b2ff 72bd
00000230: b3cb 843e 9e23 21be 8b17 a6be 5ae1 bbbd
00000240: 2645 d1bf eaad a33e 89d2 423f 519e f2bf
00000250: 2fe3 99bf 355c 2abe 7a35 37bd a6a2 283f
00000260: 730b cabd aabe a7be 06aa ce3e c2a5 933e
00000270: 5838 2e3e 304a e93d bcdf 86bf cc4f 06bf
00000280: 3862 34c0 1827 17bf 1421 b5bf 62fa 92be
00000290: 2401 433f 08b3 1dbf bf05 213e 3741 bdbe
000002a0: cf1c 98bf a05c a4be a2f5 94bf d509 fcbc
000002b0: b130 a73e e505 1bbf 784d cfbf 093b 1ebf
000002c0: 3942 f43c 8a71 1dbd b96c a1bf 3b5c fcbe
000002d0: 609e 77bf 630a 903e ac32 32bf e03b 6b3e
000002e0: 2053 113f dccc d9be ebec 9f3d 91e6 79bb
000002f0: ae63 6f3e a6c8 62bd 0776 3cbf 48de 073f
00000300: 5e43 823e 4ac6 3bbf 1299 0cbf d862 1e3f
00000310: 6573 53bf 8d69 d03e 38b0 55bf 0bdc e9bf
00000320: 4b44 fbbe 9f3a bb3c 9d57 d13e b8cc 163f
00000330: 3405 8dbe 01df 1abf 316f 15bf 2130 babe
00000340: 075d d03e f231 08bf 0a64 023f 0b58 46bc
00000350: 3c8e 633f df13 633e f097 24bf d561 76bf
00000360: aaea e3bf ed92 69bf 8936 a3be 3448 333f
00000370: 8e6a 06be e070 1e3f c91a f3be 5ad5 813f
00000380: 1a77 ad3c 2bef fd3e 4237 d6bf f911 bbbf
00000390: 6745 a2bf d4dd 88be 3e3d 89bf 753d efbe
000003a0: 18c1 c8bf 6d3e 84bf 7d62 2f3f 215d 2c3f
000003b0: 0b5d 243f beda 8d3e 4ce0 743e 236b a33e
000003c0: 2438 acbe 27c3 73bc 5678 06bf 628d 91be
000003d0: 19d6 9bbe 4749 58bf c321 a9bf 034a ccbd
000003e0: dacf 2dbf 8c19 bebd f13b 76be c129 e8bf
000003f0: 5db2 87bf 4f6a 28bf 309f 423f 387d d3be

fc2.bias f4 [128]
-0.49292707 -1.009385 -0.9517154 -1.1315861 0.0026275986 -1.1928887 0.027426263 -0.40989682
-1.6630198 -0.9824279 -0.71291786 -0.8691838 -1.2234762 -0.8763579 -1.0427867 -0.5430223
-0.6651448 -1.2601194 -0.5844489 0.25234893 -0.8190229 -0.1694164 -0.8296937 -1.0796938
-0.599933 0.3158487 -0.9484687 -0.13434067 -0.7447339 -0.8159473 -0.5956757 -1.0353304
-0.8290538 -0.96074784 -0.4711395 -0.7489214 -0.5479573 0.32004508 -0.5577468 -1.712645
-0.15462965 0.14194094 -0.06605123 -1.0231678 0.392861 -2.1336002 -0.6612144 0.35529885
-0.4651148 0.49424028 -0.4705435 0.047568988 0.19403239 -0.7636723 -0.1483637 -0.4847728
-1.3200041 -0.24124746 -0.60966414 -1.5569164 0.89186966 -1.2963204 -0.69244504 -0.7203801
-1.1888658 -1.0947796 -0.56172633 -1.1411266 -0.2346461 -1.112571 -0.66603464 -0.09142566
0.020942776 0.4235354 -1.3107045 -0.40904313 -0.5525795 -0.0059457934 -0.20145476 0.45342997
-0.19813876 -0.044114955 -0.44156867 -1.1094072 -0.6750467 -1.1836311 -1.4753345 -0.3357497
-0.38898668 -1.571199 -1.5003843 -0.1004144 -0.105175644 0.29843622 -0.68787414 -1.9150035
-0.1529624 -0.35571545 -1.4095492 -0.47003365 -0.8267323 -1.2437457 -1.0992165 0.24800804
-1.755929 -1.0783867 -0.14456257 -0.07389063 0.083162405 -0.70439434 -0.030160716 0.5350856
-0.97678876 -0.41252455 -1.3631921 -0.79971373 -1.4032822 -0.6405929 -0.3107344 -0.8962593
0.5726583 -0.44301027 0.024666913 -0.93464065 -0.7155711 -1.005443 -1.4163665 -1.4867489
00000000: f060 fcbe 8733 81bf 9fa3 73bf d0d7 90bf
00000010: ca33 2c3b 94b0 98bf 0bad e03c ffdd d1be
00000020: d5dd d4bf 6580 7bbf c981 36bf d482 5ebf
00000030: de9a 9cbf fe58 60bf 097a 85bf 8203 0bbf
00000040: ee46 2abf 984b a1bf 719e 15bf e133 813e
00000050: 7cab 51bf 7e7b 2dbe ce66 54bf 6833 8abf
00000060: 3695 19bf ecb6 a13e d8ce 72bf 9a90 09be
00000070: e2a6 3ebf ece1 50bf 347e 18bf b585 84bf
00000080: df3c 54bf 92f3 75bf 3239 f1be 50b9 3fbf
00000090: ee46 0cbf f3dc a33e 7fc8 0ebf f437 dbbf
000000a0: 3c57 1ebe f758 113e de45 87bd 2af7 82bf
000000b0: 1425 c93e e88c 08c0 5945 29bf bbe9 b53e
000000c0: 8723 eebe 100d fd3e 14eb f0be b3d7 423d
000000d0: 6db0 463e 0780 43bf a7ec 17be 2434 f8be
000000e0: e5f5 a8bf 9309 77be f312 1cbf 0949 c7bf
000000f0: 9251 643f d4ed a5bf 1444 31bf d56a 38bf
00000100: c12c 98bf bd21 8cbf 4ccd 0fbf 7010 92bf
00000110: 1147 70be ba68 8ebf 3f81 2abf 603d bbbd
00000120: 2f90 ab3c a2d9 d83e 2ac5 a7bf 1a6e d1be
00000130: da75 0dbf eed4 c2bb 284a 4ebe f927 e83e
00000140: e3e4 4abe e2b1 34bd 4a15 e2be 0e01 8ebf
00000150: dccf 2cbf 3981 97bf c3d7 bcbf 62e7 abbe
00000160: 4329 c7be 0d1d c9bf 980c c0bf 11a6 cdbd
00000170: 5466 d7bd a2cc 983e 8518 30bf d61e f5bf
00000180: 2da2 1cbe 5620 b6be 1c6c b4bf 40a8 f0be
00000190: baa4 53bf 0f33 9fbf 20b3 8cbf d2f5 7d3e
000001a0: 48c2 e0bf 9308 8abf 3608 14be f853 97bd
000001b0: 0d51 aa3d 3053 34bf 9b13 f7bc 5ffb 083f
000001c0: d40e 7abf 6b36 d3be 147d aebf 0aba 4cbf
000001d0: c09e b3bf e5fd 23bf 9418 9fbe 4071 65bf
000001e0: bc99 123f 3ed2 e2be 4412 ca3c 9c44 6fbf
000001f0: ab2f 37bf 5bb2 80bf 7f4b b5bf ca4d bebf

fc3.weight f4 [4, 128]
-0.064311065 0.94081205 0.041411765 0.050473597 -0.015391704 -0.4550507 -0.050369404 0.5689717
-0.123629965 -0.017325304 2.6401882 -1.1422315 -0.37510112 -1.9073565 0.05974174 -0.2006423
-0.040128425 0.14625917 0.07208376 -0.015483503 0.86417353 -0.3067074 0.8175927 -0.7701624
-0.62294847 -0.37511638 0.15429449 -0.47797558 0.10443268 0.14535743 -0.9107768 0.23448591
-1.3128896 0.040350977 0.11436423 0.4708513 -0.16989131 -0.1302723 -1.0964606 0.2970419
-0.021526607 -0.17292213 -1.8990984 0.02530661 -0.5566246 0.1895001 0.25607657 0.12919547
0.022992544 -0.28850117 0.15937571 0.05429052 -0.34246406 0.009983929 0.065821975 -0.15610749
-0.09080926 -0.6757978 0.2763828 -0.13227291 -0.043044813 -0.33093083 0.06514518 -0.15882716
-1.2091733 -0.19854921 -0.23986606 -0.24396032 0.6026872 0.012239746 -0.2662805 -0.040892553
-0.0013993033 0.45249477 0.11579377 0.6380865 -0.073905766 0.04542911 0.46295184 -0.3321946
-0.42716536 -0.0065212655 -0.009261635 0.24415992 0.24335861 -1.1740952 0.06146641 0.010622169
0.2848697 0.2044909 0.39318135 0.029630786 0.010317292 -0.09838881 -2.6343653 -0.010890484
0.6298714 -0.38517424 -0.40401387 -0.13339342 -0.21593723 0.526074 1.8937142 -0.010554353
0.4942124 -0.052054834 -0.82422894 0.051201973 0.02935015 0.020830393 0.015377672 -0.37167475
2.4139276 -0.058758706 -1.6434919 0.62246126 2.0921936 -0.03527356 0.35554639 0.014830155
-5.2066092 0.3408737 -0.3004564 0.90998495 -0.12350813 0.6107901 -0.13683333 0.20457235
0.6017047 -0.33498558 -0.055982757 0.38411948 -0.0009074247 -0.50208473 -1.2399155 0.5591943
-0.021540195 -0.5078988 -1.4325814 -0.072071165 -0.5661754 0.28622785 1.0487163 -3.0502062
0.21530913 0.14431047 -0.14159007 -0.07013831 0.2656865 -0.15832378 0.0062316656 -0.43650052
0.36777362 0.10810718 -0.010740151 -1.066578 -0.27745306 -0.0461922 0.14787956 -0.0016104153
0.33695835 0.7538617 -0.014312513 0.027658986 -0.14816147 0.033956114 0.003909262 -0.11244966
-0.03038005 -0.14858378 -4.3071947 0.36546084 0.0030329428 -0.55778295 0.04414134 -1.9330435
0.056063462 -3.573894 0.23599105 -0.00035111338 -0.52545154 0.10025009 -0.5135894 0.007976175
0.4278462 -0.032769267 -2.130018 -0.76760787 0.0023630348 -0.011651922 0.50640666 0.050484587
1.1868014 0.00015555978 0.57287997 1.7013922 0.004335173 -0.497555 -0.011467052 -0.019566817
-0.31294104 -0.5941274 2.8810854 0.9709845 0.067378536 -0.09935016 0.11234528 0.0028508713
0.038440093 -0.00026445073 -0.24032745 1.1010888 -0.0693279 -0.09378841 3.3316119 -0.14116378
-0.12605429 -0.024585221 0.95538145 0.028849134 -0.030970573 0.007374848 -2.4882824 0.12525171
0.6554206 0.13425244 -0.72133857 -0.16720407 1.3812315 -0.6925477 -2.3782349 -0.15200576
0.50263876 -0.10240161 -0.065669745 -0.02295443 0.02470008 0.0137017835 0.022257201 -0.08222967
-1.1600603 -0.013546328 0.001615867 -0.029624967 0.20926367 -0.045998286 -0.3436308 1.2145354
-0.21807966 0.06669057 -0.029016457 -0.2093962 0.010345287 -0.0036122492 -0.7087604 0.031653516
00000000: 85b5 83bd 0fd9 703f 629f 293d 67bd 4e3d
00000010: 7c2d 7cbc 68fc e8be 2650 4ebd 21a8 113f
00000020: b531 fdbd cced 8dbc d8f8 2840 a434 92bf
00000030: 410d c0be 4224 f4bf c1b3 743d 2d75 4dbe
00000040: b45d 24bd f7c4 153e a6a0 933d 85ae 7dbc
00000050: 7a3a 5d3f c108 9dbe c14d 513f 5d29 45bf
00000060: 8d79 1fbf 410f c0be 60ff 1d3e 37b9 f4be
00000070: cde0 d53d 94d8 143e ab28 69bf 131d 703e
00000080: c40c a8bf 1147 253d cb37 ea3d 6c13 f13e
00000090: fdf7 2dbe 1a66 05be d258 8cbf e015 983e
000000a0: 9158 b0bc 8012 31be a815 f3bf cf4f cf3c
000000b0: f37e 0ebf 500c 423e 781c 833e d14b 043e
000000c0: dc5a bc3c 6db6 93be 6333 233e bc5f 5e3d
000000d0: 7357 afbe a293 233c accd 863d a4da 1fbe
000000e0: 35fa b9bd 1601 2dbf 0c82 8d3e 8d72 07be
000000f0: c24f 30bd c46f a9be d66a 853d 96a3 22be
00000100: 31c6 9abf 7c50 4bbe 739f 75be bcd0 79be
00000110: b549 1a3f 3789 483c eb55 88be f37e 27bd
00000120: d468 b7ba 65ad e73e 4925 ed3d a359 233f
00000130: e85b 97bd e013 3a3d 0608 ed3e 6915 aabe
00000140: 6bb5 dabe 57b0 d5bb 1dbe 17bc 0f05 7a3e
00000150: 0033 793e c048 96bf 34c4 7b3d 9b08 2e3c
00000160: 71da 913e 1066 513e 114f c93e 43bc f23c
00000170: dc09 293c 1380 c9bd 7199 28c0 006e 32bc
00000180: 413f 213f 8f35 c5be e8da cebe 4998 08be
00000190: a61e 5dbe c9ac 063f 3a65 f23f 2aec 2cbc
000001a0: 6809 fd3e 7337 55bd ab00 53bf 29b9 513d
000001b0: ba6f f03c 80a4 aa3c a2f2 7b3c 274c bebe
000001c0: ca7d 1a40 f8ac 70bd f15d d2bf 9f59 1f3f
000001d0: 80e6 0540 027b 10bd 2d0a b63e 2efa 723c
000001e0: 8b9c a6c0 ff86 ae3e 6cd5 99be c6f4 683f
000001f0: d5f1 fcbd bd5c 1c3f 091e 0cbe 6a7b 513e
00000200: 5209 1a3f 3b83 abbe 2d4e 65bd 4fab c43e
00000210: 3ee0 6dba a088 00bf 8db5 9ebf 5c27 0f3f
00000220: 1075 b0bc a805 02bf d45e b7bf 0c9a 93bd
00000230: dff0 10bf 758c 923e 563c 863f 9436 43c0
00000240: ff79 5c3e 20c6 133e fdfc 10be ada4 8fbd
00000250: 1008 883e a11f 22be 0033 cc3b ff7c dfbe
00000260: d34c bc3e 4c67 dd3d 75f7 2fbc a185 88bf
00000270: 540e 8ebe 0834 3dbd bd6d 173e 9214 d3ba
00000280: ce85 ac3e 15fd 403f 087f 6abc 1995 e23c
00000290: a4b7 17be 9115 0b3d 4419 803b 024c e6bd
000002a0: 95df f8bc 5926 18be 8ad4 89c0 af1d bb3e
000002b0: 56c4 463b ddca 0ebf 8dcd 343d f86d f7bf
000002c0: cda2 653d aeba 64c0 a3a7 713e a415 b8b9
000002d0: fe83 06bf eb4f cd3d 987a 03bf 81ae 023c
000002e0: a80e db3e 1139 06bd 3752 08c0 f381 44bf
000002f0: 25dd 1a3b b4e7 3ebc dea3 013f edc8 4e3d
00000300: 1ce9 973f c31d 2339 43a8 123f 38c7 d93f
00000310: 110e 8e3b 87bf febe 4de0 3bbc 974a a0bc
00000320: cf39 a0be bc18 18bf b463 3840 7192 783f
00000330: c2fd 893d 1978 cbbd 4815 e63d afd5 3a3b
00000340: 5c73 1d3d faa5 8ab9 6618 76be 7af0 8c3f
00000350: c9fb 8dbd 2314 c0bd 2139 5540 3d8d 10be
00000360: 6014 01be f266 c9bc e193 743f 0555 ec3c
00000370: 00b6 fdbc b5a8 f13b 0540 1fc0 fc41 003e
00000380: a5c9 273f 7979 093e a5a9 38bf 8b37 2bbe
00000390: 32cc b03f ce4a 31bf 0035 18c0 66a7 1bbe
000003a0: efac 003f efb7 d1bd dc7d 86bd ee0a bcbc
000003b0: d257 ca3c 727d 603c bc54 b63c 0768 a8bd
000003c0: db7c 94bf 6bf1 5dbc 80cb d33a 0fb0 f2bc
000003d0: 3749 563e b368 3cbd 60f0 afbe e575 9b3f
000003e0: 4650 5fbe 1195 883d ecb3 edbc f56b 56be
000003f0: 477f 293c 7cbb 6cbb 5271 35bf 1ea7 013d

fc3.bias f4 [4]
-0.14814879 0.050913796 -1.2797347 0.65693116
00000000: 51b4 17be fc8a 503d 59ce a3bf a42c 283f
