checkpoint_critic.pth (torch_old, 82457 bytes, 5 tensors)

fcs1.weight f4 [128, 24]
00000000: 88dd 673d 51cd f8bc 5a2f 473c 8405 20bd
00000010: 3952 b33e 16ef 05be 0927 94bc 88fc 4fbd
00000020: 927d b2bc d734 4cbe 2e7c 133d f231 5c3c
00000030: 8614 1b3d 90ab e03e ef1e 46bd 29ed f3bc
00000040: db47 d03c 3d0d 2fbe bff7 86bd f5be ecbb
00000050: e4db 05bf 0ff7 be3f ac9e d43c d45d 21be
00000060: bfc8 e9bb 813d da3e 5dfb 643d 0c67 863d
00000070: aa30 1d3f 130c 263f 7d62 3dbd a9b0 ccbc
00000080: ae46 8e3c d66c 203f 02ca 123c f138 123e
00000090: ac5f 533e a8c7 fb3e 1add 6ebb e268 b9bc
000000a0: 5593 363d 262d 4b3f 804c a13c 448f 533d
000000b0: efe3 21bf 7136 54be 0bea 11bd 2a39 3d3c
000000c0: 7813 013d 34d5 c73d 9c9c df3c 41df 803b
000000d0: 1c9e 3a3f 7ef5 12bf 2614 01bd 2491 c4bc
000000e0: 5fe2 0ebc 7918 383d e4d2 a9bc fe41 41bc
000000f0: 41f6 8c3d f922 7abc 77b0 8c3c 659c b53c
00000100: ffb8 013d 5594 e03d 8166 313d eea4 83bc
00000110: 7fa6 73bf 0ef1 383f fd79 39bd fe1b c53c
00000120: bb35 b7bd 555e 98be 59bf aabd e06a 363e
00000130: b631 683d 6fa9 383e cf52 01be 87d8 0a3e
00000140: 98d0 a33e d185 25be 3016 08bd 5155 5abe
00000150: 2264 16be f472 42be b073 c9bd 221d d4bd
00000160: 739d 2c3f 1487 06be 86f4 403d ef5b b73e
00000170: a395 e1be 1572 1ebf 6c6f 363d 7ff4 a93e
00000180: 934a c53d 56a6 393f 5dea bc3d 09d3 303e
00000190: 68d1 b43e 6c83 c93e 1552 813d dc17 ca3d
000001a0: a967 ba3e e939 6c3f 9d37 b03c 8d48 ddbc
000001b0: cf25 7e3e dfd9 f1bd e918 be3d 25aa f1bc
000001c0: b57c 0e3f fb0e 933f 7795 adbc f5b1 0c3f
000001d0: a03b cabe 5cd2 e4be b123 db3c 6a23 053f
000001e0: f695 00be 8f97 0d3f ac8b f9bc 6646 453d
000001f0: 0a2a 5bbe 5ae7 373d 2268 0d3d 9820 d93c
00000200: cb2b 35be 27a1 443f 2235 853c eb78 9b3d
00000210: 40ff a6bd eba5 a3be 67cb 44bd c4d0 52bd
00000220: 44db 27be 72de 8c3f 0456 47bd 4b28 e33d
00000230: 4263 fa3e b252 f5bf 59a9 3cbd 5125 943d
00000240: 9cfc dd3e 8581 d13e 2e5e 9c3c a8cc 47be
00000250: 6412 40bd 590f 17be 8f1e 7bbb f865 24be
00000260: c19f cb3e 04cc d03e 6504 a33d b153 12be
00000270: ebb8 f53e 190b 1f3e 8099 8abd a996 bfbd
00000280: d8bc ea3e 832f a13e 7b7a 023e 0036 88be
00000290: 370e 2a3f db79 ff3e c088 003d 9468 0dbe
000002a0: 2940 673c 0d73 06bc 97e2 553c b88f 89bd
000002b0: 4cfb d0be b204 813e 3dfb 72bc 306d d3bc
000002c0: 06ec 2c3d 277e c8ba f164 c23c 0464 29bc
000002d0: a324 e1be 8d9f f53e e3e2 c9bc a06b 7f3d
000002e0: e8a4 903d f5e2 113e 9990 1c3d d6c4 8b3d
000002f0: 4020 743f ee43 bbbe 0e86 fbbc 225c 633a
00000300: b72d 04be bf9b d23e 729b d63b 1e08 a73d
00000310: ce7e d8bd adce e0be e09d 043d 3cf8 6f3d
00000320: 88dd 07be 8911 383f 5f98 a93d 63e5 003e
00000330: ee29 3dbe 56c5 ebbf 2893 98bd 9881 2a3e
00000340: 787a 6cbe 5427 2e3f 5da8 ae3c 26a5 e4bc
00000350: 6d7f c03e 0c1e 79bf 3523 0a3c c98b a63c
00000360: 579b d63d e9ff 85bd 2301 0bbd d052 433e
00000370: d280 b33e c7a1 aabe 4edd 483d 9337 2d3e
00000380: c463 25bc 67b6 5bbd 3bc1 bbbc 69ce 053e
00000390: 06a2 e13e 18d5 adbf 4b76 093d 9960 3c3e
000003a0: 8d43 163d b67f f4bd 8eb0 c1bc 0584 0f3e
000003b0: 3eb3 853e 6b32 d9bf 0061 b2bd 0c4c 103e
000003c0: c4e3 ad3c 9a73 82bd 14bc aebd 2851 04be
000003d0: ae19 78be 547f 29bf e6e4 323d 819e 1dbe
000003e0: 5d5b 753d 49c7 fe3c ef82 87bd 81cd 15be
000003f0: 1a1d 593e 4037 d0bf e1ae 3fbd 21a1 60be
0.056607753 -0.03037134 0.012157286 -0.03906776 0.35023668 -0.13079485 -0.01808502 -0.050777942
-0.021788392 -0.19942032 0.0360071 0.013439642 0.03786137 0.43880892 -0.048369344 -0.029776173
0.025424888 -0.17094894 -0.065902226 -0.0072249123 -0.5228865 1.4919146 0.025954567 -0.15758449
-0.0071345265 0.4262505 0.05590378 0.065626234 0.6140238 0.64862174 -0.046236504 -0.024986582
0.017367687 0.6266607 0.008959295 0.14279534 0.20641965 0.49175763 -0.0036447705 -0.02263302
0.0445741 0.79365766 0.019689798 0.0516503 -0.63238424 -0.20723893 -0.03562359 0.0115492735
0.031512707 0.09757462 0.027296357 0.003932864 0.72897506 -0.5740584 -0.031513356 -0.02399499
-0.008720963 0.044945214 -0.020730443 -0.011795519 0.06882907 -0.015267127 0.017173989 0.022169301
0.031670567 0.10965792 0.043310646 -0.016069856 -0.9517593 0.7224282 -0.045282353 0.0240612
-0.08945795 -0.2975947 -0.08337278 0.17814207 0.056688033 0.18033384 -0.12629245 0.13559161
0.31995082 -0.16164328 -0.033224285 -0.21321608 -0.14686635 -0.18989164 -0.09836519 -0.10357119
0.6742775 -0.13137466 0.047108196 0.35812327 -0.44059476 -0.61892825 0.044539854 0.33194348
0.096333645 0.72519433 0.09224389 0.17268004 0.35316014 0.3935808 0.06314484 0.09867832
0.3640721 0.92275864 0.021510893 -0.027012134 0.2481911 -0.11809134 0.09282095 -0.029500077
0.5565904 1.1488947 -0.021189434 0.5495904 -0.39498615 -0.4469174 0.026750417 0.5200716
-0.12557206 0.55309385 -0.030462109 0.04816284 -0.21402755 0.04489837 0.034523137 0.0265048
-0.17692487 0.768084 0.016260687 0.07591423 -0.08154154 -0.31962523 -0.048045542 -0.051468626
-0.16392237 1.1005385 -0.048666015 0.1109167 0.48903853 -1.9165862 -0.04605994 0.0723368
0.43356788 0.40919128 0.019087877 -0.19511664 -0.04689254 -0.14751948 -0.0038317775 -0.16054523
0.3977032 0.40780652 0.079598226 -0.14289738 0.47992644 0.15531577 -0.06767559 -0.09354908
0.458472 0.3148156 0.12742035 -0.266037 0.6642794 0.49897656 0.031380415 -0.13809425
0.014114418 -0.008206141 0.0130545115 -0.06716865 -0.40816724 0.25198895 -0.014830408 -0.0258089
0.042217277 -0.0015296385 0.023729773 -0.010338787 -0.43973264 0.4797329 -0.02464432 0.0623585
0.07062703 0.14246733 0.038223837 0.06824653 0.9536171 -0.36575264 -0.03070357 0.00086730917
-0.12908064 0.4113445 0.0065492922 0.08155845 -0.10571061 -0.4390768 0.032377124 0.058586344
-0.13268101 0.71901757 0.082810156 0.12587504 -0.18473026 -1.8419597 -0.07449943 0.16650999
-0.23093593 0.6802876 0.021320516 -0.02791078 0.37597218 -0.9731147 0.008431246 0.020330327
0.104788475 -0.065429516 -0.03393663 0.19074559 0.3505922 -0.3332655 0.049039178 0.16915731
-0.010094587 -0.05364075 -0.022919288 0.1306702 0.44068927 -1.3580656 0.03356008 0.18396224
0.036685515 -0.119384214 -0.023643758 0.14015205 0.26113313 -1.6968511 -0.087099075 0.1409151
0.021226771 -0.063697055 -0.08531967 -0.12921584 -0.24228546 -0.6620991 0.043675326 -0.15392496
0.059901584 0.031100886 -0.066167705 -0.14629175 0.21202508 -1.6266861 -0.046797637 -0.21936466

fcs1.bias f4 [128]
00000000: 8533 d8be 2a7b 61bd da7e 50bf 90a6 cfbd
00000010: d452 fcbe 544f 61be 9281 fcbe 7e30 3cbf
00000020: 3eca 51bd 6d87 b2be b154 58be 04b2 19bf
00000030: cc7e bcbe 201d cebe 50d1 3cbf 0728 98bf
00000040: 1b4e 0abf 5c7c 66be f5c3 43bf df72 9bbe
00000050: 0616 edbe a0bf 94be 9181 65bf ca9d 943d
00000060: aea1 cebe 717d 8dbe b1b8 1a3f 7ecc 39be
00000070: 2462 0ebf 5582 173e c3ff 0ebe a292 81bf
00000080: 8047 b6be b9fe 7bbe 04e2 abbe a0d0 20be
00000090: 9ff4 2bbf 57d6 c9bd 7e1e be3d f2df eabe
000000a0: 314a 76bd b1c8 16bd db41 ff3d de82 9e3e
000000b0: 7b22 25bf 7c1b 27bf bee2 013f 5511 35be
000000c0: fec7 2abf 7989 463e 9a6c a83d b83c 1bbd
000000d0: d31f 81bf faed 1abe c65d ecbe d060 2abf
000000e0: e75e 0fbe e1cb 213d 123f 3cbe 4334 28bf
000000f0: 7cd5 0dbd 5fa5 833d 8936 d2bd 044b 00bf
00000100: e6fa 9e3e 144a dbbe bc08 293f 8d63 ddbe
00000110: 3c9c dcbe 1549 08bf 517f 33bf a902 12bf
00000120: e8a1 ccbd 662f 9ebf 3901 03be 7302 78be
00000130: a4a7 843f ff4c a63e a85b 44bf 9a4e 9bbd
00000140: cc61 6fbe dcef 043f 6d24 853e 4feb e8be
00000150: bce6 c2be 14a7 adbc 3915 95be 9a8b 45be
00000160: 1e27 11bf 23f6 f83c 7eed 26bf 8419 c5be
00000170: 93c4 89bf 741e c43e 47f3 cc3d 615a 5bbf
00000180: 9c6f 983d cd2e 17bf 7ebe 82bd 3a20 1dbf
00000190: 5697 42bf 8c96 90be 6207 da3e 28c4 a4be
000001a0: 3b62 9cbb 9ccf 8abe c8c6 9abe 350c 08ba
000001b0: d76e d9be 7882 6cbe c2da 1b3d 592f 27bf
000001c0: 28ec adbe 583b d73c 2eb2 4dbe 7bc0 a5be
000001d0: 27eb 1bbe 9ab6 38be e767 7bbe 245e 50bf
000001e0: aaa7 4f3f 280e 013f 9faf 343d 4e19 993e
000001f0: ae0c 863e 61ef acbe 88f4 6fbe 7818 84bc
-0.42226806 -0.0550491 -0.8144356 -0.10139191 -0.49281943 -0.22002918 -0.49317604 -0.73511493
-0.051218264 -0.34868947 -0.21126057 -0.60037255 -0.36815488 -0.40256596 -0.73756886 -1.1887215
-0.5402543 -0.22508377 -0.7647088 -0.30361077 -0.46305865 -0.29052448 -0.8965083 0.072566584
-0.40357727 -0.27634767 0.60438067 -0.18144414 -0.556185 0.14795811 -0.13964753 -1.0122874
-0.35601425 -0.24608888 -0.33570874 -0.15704584 -0.6717014 -0.09855335 0.0928316 -0.45873982
-0.06012935 -0.036812488 0.12463733 0.3095922 -0.6450574 -0.6527631 0.50736606 -0.17682393
-0.66711414 0.19388379 0.08223839 -0.037899703 -1.0087837 -0.15129843 -0.46165293 -0.66553974
-0.14001046 0.039501075 -0.18383434 -0.65704745 -0.034627423 0.064280264 -0.10264308 -0.50114465
0.31050795 -0.42829955 0.6602895 -0.43240014 -0.43087947 -0.53236514 -0.70116144 -0.5703531
-0.09991819 -1.2358215 -0.12793435 -0.24219684 1.036366 0.32480618 -0.76702356 -0.075833514
-0.2337715 0.51928496 0.26004353 -0.45492026 -0.3806666 -0.021197833 -0.29117754 -0.19291535
-0.56700313 0.030390805 -0.65206134 -0.3849603 -1.0763115 0.38304484 0.10007339 -0.8568478
0.07443163 -0.5905579 -0.0638399 -0.613773 -0.7601217 -0.28239858 0.42583758 -0.32180905
-0.004772452 -0.27111518 -0.30229783 -0.0005189807 -0.42467377 -0.23096645 0.03805042 -0.6530662
-0.33969235 0.026273414 -0.20087501 -0.32373413 -0.15226422 -0.18038407 -0.24551354 -0.8139365
0.8111521 0.50412226 0.044112798 0.29902118 0.2618155 -0.33776382 -0.23433125 -0.016124949

fc2.weight f4 [128, 132]
00000000: bbd9 2e3e 7307 843e 6fa1 f1be 3c99 c8bd
00000010: 80e3 40be 6f4c b13e e282 b93e 1fe2 5ebe
00000020: 3eb4 ed3d c43f 593e 2481 10bf 9a14 e6be
00000030: 3104 6e3e f16d a23e c9b4 a1bb 0665 183e
00000040: 9729 31bd 5ba1 5f3c d9eb 1dbf 5a75 863b
00000050: 941c 313d 2999 04bf e76e fe3e 5273 0dbe
00000060: f300 48bd ec44 44bf 8280 853e f828 4dbe
00000070: 5d1e 4e3d 0723 75bf afad 57bf df7e c9be
00000080: 2a0e 13bf 2304 0cbf ab00 24bc bf30 a6be
00000090: f8c3 85bf ceca 9d3e 91d4 29bf a94b abbf
000000a0: 74db 64be d878 91be 8bb0 ab3e 650c a7be
000000b0: b1be bf3c 20d2 48bf 3bc6 7cbe 5173 34bd
000000c0: 7326 fabd 6101 a53d b98d 4f3d 1a93 30bf
000000d0: cd10 59bf fdd4 41be 9137 82be 0e92 4fbe
000000e0: bc71 973e 8c0f a5be bd00 ffbe 06b2 28bf
000000f0: bd0a 0cbf f2cc 403e daf3 bebe 4a02 503e
00000100: 1644 39bf 653d bbbc 168e 89be e5cf 7abe
00000110: ef0c 65be e770 65be 15f9 5bbb bfbd 37bf
00000120: d123 70be b7a6 833e bc17 1cbd fc91 b1be
00000130: 225b 1cbe 1919 90bf a52c 2abf 26c6 66bf
00000140: 3ed3 c8be f9c6 44bb a82f d93e 2c16 763d
00000150: a717 cf3e d36f 263e cca3 81bd 08bd 41be
00000160: 7274 42bd ca21 8b3d 8933 31bf 258b ee3e
00000170: 49b1 79be 97dc b3bd cde3 1cbe 159f 17be
00000180: 277e 8ebf c222 dd3c 8be8 acbd 1db1 9e3e
00000190: f324 debf 64af 24bd 268e 21be f713 ecbe
000001a0: 5acf 943e 6149 14be 14c1 0bbe 17ce 35bf
000001b0: 3dfe bcbd c1ca 36bb eefb 0ebe 80c2 383d
000001c0: 2745 3cbe f7c9 3d3d 2c21 3abe 650a c2be
000001d0: e443 5bbd 27ac b8be 462c 01be 2756 a3be
000001e0: dcc6 2c3e 79a2 43be 3a59 4dbe 5359 313e
000001f0: 2496 a2bd d742 c6be a363 dfbf e6d8 95be
00000200: faae 0d3f abbe 273f 47eb 7c3d 660a fe3e
00000210: a34b 73bd 9666 2bbd afde a43e f039 153e
00000220: c402 133e e933 0bc0 165f 4a3e 5c53 363e
00000230: 2b55 92bf 13b8 e3be e485 61bd 9212 17bf
00000240: 71d5 e23d 5a52 923e 91d2 46be 16c4 223e
00000250: a147 233d 4e1f 05be c1d3 d3bc c48e 37bf
00000260: 9f7c fc3b 2fdd 753d 28b9 873e a648 563e
00000270: 30c0 333e dac2 453e 1035 383e 9711 98bf
00000280: cf4e 3dbe cc7f 2dbc b4bc 93be a8c2 b8be
00000290: 203b 073c a6c5 c2be 2362 e0bd 1b37 99bd
000002a0: 081b 4cbe ae22 26bf 3c9f a8be cda2 923e
000002b0: 4682 26bd c901 20be 460c fe3b b1c4 14bd
000002c0: 8f8c cabe 2d49 b4bd 60c2 c23d e55f b2bc
000002d0: 8407 0fbe f965 c4be 6a47 66be a63f 3b3e
000002e0: 976e e93c 39b9 0ebf 6ed4 cbbe e26e c1be
000002f0: 59c9 c3bd c914 f9be 75a3 95bd 30e5 08bf
00000300: 0cba 80bf a40d e7bf b27b f2be 428e e7be
00000310: f673 00be 0848 7abe 9ff3 2e3d 17ac 16be
00000320: 6007 053e a246 993e 1b45 303d cf48 80be
00000330: 3856 64bb 3faa 243e 0158 4cbe cc76 bfbc
00000340: b480 8ebe 789f e83b f230 f9bd 039b dfbc
00000350: d0f2 53bf 7773 0bbe 3c24 2dbf b9c8 8dbc
00000360: 0277 f3be d5ff 9e3e 2dff c5bd 847f 1fbe
00000370: 3086 e43c 66ee 20be f52f a1bd 37d6 8e3e
00000380: 10cc e7bd 8f8e be3d 4d88 12bf ca4a c8be
00000390: c2df 95bd b996 7d3e 19b1 053f c6e5 7abd
000003a0: d5fe 003e 2298 963d c470 c5bf 10a1 babc
000003b0: 12c0 49be 1f7f 983d 464a babd 67eb 49be
000003c0: 6039 adbd 9f94 6dbf beeb 06bf be01 6abf
000003d0: 28c5 803d 4469 d2bc 8d42 00bf 7e25 c3be
000003e0: f5cd bf3d 697a cdbe 8793 1bbe e846 2ebd
000003f0: 2474 8fbe 4a8d 80be 3741 3abe 2053 f9bd
0.17075245 0.25786933 -0.47193477 -0.09794852 -0.18836784 0.34628627 0.36232668 -0.21765946
0.11606644 0.21215731 -0.5644705 -0.44937593 0.23243786 0.31724504 -0.0049348813 0.14882287
-0.043252554 0.01364931 -0.61688 0.004103345 0.043240145 -0.51796204 0.49693987 -0.13813522
-0.04882903 -0.76667666 0.26074606 -0.2003516 0.050321925 -0.9575657 -0.84249395 -0.39354607
-0.5744349 -0.5469381 -0.010009925 -0.32459065 -1.045043 0.3081879 -0.66339976 -1.3382465
-0.2234934 -0.2841251 0.3353313 -0.32626644 0.023406358 -0.78445625 -0.24684994 -0.044055287
-0.12214365 0.08056904 0.050672267 -0.6897446 -0.8479126 -0.18928905 -0.2543302 -0.20270559
0.2957896 -0.32238424 -0.4980525 -0.6589664 -0.54703885 0.1882818 -0.3729542 0.20313373
-0.72369516 -0.022856424 -0.26866215 -0.24493368 -0.22368215 -0.2240635 -0.0033565213 -0.71773905
-0.23451163 0.2571313 -0.038108572 -0.3468169 -0.1526914 -1.1257659 -0.6647437 -0.901461
-0.39223665 -0.0030025824 0.4241917 0.06007974 0.40447733 0.16253595 -0.0633007 -0.18919766
-0.047474332 0.06793554 -0.6921926 0.46590534 -0.24384035 -0.087823085 -0.15321274 -0.14806779
-1.1132249 0.026994113 -0.084427916 0.30994502 -1.7355026 -0.040206328 -0.15776882 -0.46108982
0.29064447 -0.14481117 -0.13647872 -0.71017593 -0.092281796 -0.0027891847 -0.13963291 0.045107365
-0.18385755 0.046335187 -0.18176717 -0.37898555 -0.053531542 -0.36068842 -0.12614545 -0.31901667
0.16872734 -0.19104947 -0.20053568 0.1731923 -0.07938793 -0.3872287 -1.7452282 -0.29267043
0.5534512 0.6552531 0.061747815 0.49617308 -0.059398305 -0.04184588 0.32201144 0.14572883
0.14356524 -2.1750433 0.19762835 0.17805237 -1.1432241 -0.44476375 -0.05505933 -0.5901271
0.11075867 0.28578454 -0.19416262 0.15895113 0.039863233 -0.13000223 -0.025857808 -0.7170222
0.0077052857 0.06002539 0.2650845 0.2092615 0.17553782 0.19312611 0.17988992 -1.1880368
-0.18487094 -0.010589551 -0.28854907 -0.3608601 0.008253843 -0.3804142 -0.10956218 -0.07481214
-0.19932187 -0.64896667 -0.32933986 0.28639832 -0.040651582 -0.15625681 0.007752928 -0.036320392
-0.39560363 -0.0880302 0.0950973 -0.021774242 -0.1396771 -0.3835905 -0.2248818 0.18285999
0.028495116 -0.5575138 -0.39810508 -0.3777991 -0.095598884 -0.4864867 -0.073065676 -0.5347471
-1.0056777 -1.8051038 -0.47359997 -0.45225722 -0.12544236 -0.2444154 0.042712804 -0.14714085
0.12991095 0.299367 0.043034654 -0.2505555 -0.003484143 0.16080569 -0.19955446 -0.023372076
-0.27832568 0.0070990883 -0.12167539 -0.027295595 -0.8279238 -0.13618265 -0.67633414 -0.017307626
-0.47551733 0.3105456 -0.096678115 -0.15575987 0.027896017 -0.15715942 -0.07870475 0.27897808
-0.11318219 0.09304535 -0.5723923 -0.3911956 -0.07318069 0.24764527 0.52223355 -0.061254285
0.1259721 0.07353236 -1.5425038 -0.022781879 -0.19702175 0.074461214 -0.09096198 -0.19718705
-0.08458209 -0.928049 -0.52703464 -0.9140891 0.062876046 -0.02568496 -0.5010155 -0.38114542
0.09365455 -0.40132454 -0.15192996 -0.04254809 -0.28018296 -0.25107795 -0.1818894 -0.12174058

fc2.bias f4 [128]
00000000: a4e9 5abe e2ce aabf 4034 1dbd dbec e63d
00000010: 6996 ddbd 1b8e 123e 18fe f0bc 334b 91bd
00000020: 7508 91bd 5ef5 053d d31c f73d 4ccf 23bf
00000030: fbd2 aebe 80fb 4cbd b79b b33d 2393 6c3d
00000040: 2c3e 8f3e 77e0 8d3e 3221 58be b844 08bf
00000050: c82c 7c3e 714c 99be d63f fa3c 9463 293f
00000060: ec9a 58be cc16 10bf 2f0d 76be 138a 1cbf
00000070: 12c7 9abe 9cb7 6f3d dad6 4c3e 5d4f 733e
00000080: ab5e 5e3f 9be0 07be e847 e2be ff3d 30bf
00000090: cfc4 4e3e 4272 1a3e 27cc 443e 53ef eabd
000000a0: 55d1 10bd e285 49be 1fa4 66be ca98 23be
000000b0: 36e9 583e 4f16 dcbc 274b b0bf e9d9 b5bb
000000c0: 00ba a53d 4990 99be 41a3 a7be 14d0 9a3d
000000d0: 0207 ee3e c999 96be f45c b8bd 9c67 c8be
000000e0: 31e0 0b3f 320c 8c3e 8ee6 10be cb4e 9cbc
000000f0: 3632 bb3e f48a c2be e872 b23d 9349 ebbd
00000100: 323a 92bd c502 413f 26b5 363e 54fe 7c3f
00000110: bd5b b9bd 9e0e 6abe 9dc1 ae3e 3bc0 59be
00000120: ff3f b9bc 55db 07be 2c08 a5be 416e acbc
00000130: 02b1 933d f79d 41bf 8ad3 a53f 9bdc c2be
00000140: 5447 603e dd59 03bf 8b1d e93e 52ab c5bd
00000150: c573 b3be a4d5 14bf 8fb0 88bd e3c5 533f
00000160: 345a 52be 38ba a9bd 4da7 96bd ed4e 1cbe
00000170: 7a4e 89be 0597 4bbf 9023 083e 44f9 cabe
00000180: ec7f 1bbe 9645 e83d 7d27 ff3c de3e 39bd
00000190: e7b6 38bf 3db1 a0bd 59be 833f 9641 8fbd
000001a0: 62cd 923f 9f52 143e a44a 04be ca83 87bf
000001b0: dff7 afbe d4fa 2c3f 8af0 c93e 37da 86bc
000001c0: fc8f 4d3f 8bd6 853e ffed b6bd 7a2a d8bd
000001d0: 4d6d 51be c4f3 6fbf 9871 8b3e a753 bebe
000001e0: 2a31 2abe 968b 7b3f 234f 74be a2c7 c63f
000001f0: 830d 2c3d 78cc 89bd 15e1 523d e7f7 17bf
-0.2137819 -1.3344386 -0.038379908 0.11275645 -0.10819704 0.14312021 -0.029418036 -0.07094421
-0.07081691 0.032704704 0.12066045 -0.63988185 -0.3414534 -0.050044537 0.087699346 0.057757508
0.2797712 0.27710316 -0.21106413 -0.53229856 0.24626458 -0.29941133 0.030548017 0.6616757
-0.21152848 -0.56284785 -0.24028467 -0.61148185 -0.30230004 0.058524713 0.20003834 0.23760743
0.868632 -0.13269274 -0.44195485 -0.688446 0.20192264 0.15082648 0.19218503 -0.11471429
-0.035355885 -0.19679978 -0.22523545 -0.15976253 0.21182713 -0.026866106 -1.3772935 -0.0055496586
0.08092117 -0.29992893 -0.3274174 0.07559219 0.46489722 -0.29414204 -0.090021044 -0.39141548
0.54638964 0.27353054 -0.1415045 -0.01908054 0.36561745 -0.37996638 0.08713323 -0.114886425
-0.07140006 0.7539485 0.1784254 0.98825574 -0.09050701 -0.22857139 0.3413209 -0.21264736
-0.022613524 -0.13267262 -0.32232797 -0.021048667 0.07211496 -0.7563166 1.2955182 -0.38058934
0.2190221 -0.51308995 0.45530352 -0.096518174 -0.35049263 -0.5813849 -0.06674301 0.82723826
-0.20542222 -0.082874715 -0.07356129 -0.15264483 -0.26817685 -0.7952731 0.13294816 -0.396433
-0.15185517 0.113413975 0.03114676 -0.04522597 -0.72154087 -0.078463055 1.0292464 -0.069949314
1.1468928 0.14484642 -0.12919098 -1.0587094 -0.34368798 0.67570233 0.3944133 -0.016461475
0.8029783 0.26140246 -0.08932113 -0.10554977 -0.20451851 -0.9373133 0.27235103 -0.37173197
-0.16620317 0.98259866 -0.23858313 1.5529673 0.042005073 -0.067284524 0.051484186 -0.59362644

fc3.weight f4 [1, 128]
00000000: 4794 a6bc d2ce 91bd 09e8 48bc b12d 6a3c
00000010: 12c9 1b3d b21e 183d 9bc8 33bd a85f 37be
00000020: b288 08be 79fb e3bc 5636 81bd d1f7 6fbd
00000030: 626e 8bbd e82a af3d 816d 473c 690c be3d
00000040: da40 b43c 02c4 f9bc b179 d5bc 3c6c 76bc
00000050: 3cec 413e 58e5 b3bd 69e3 703d 6567 dc3c
00000060: b21c 5f3d 46a1 1f3d 04e9 98bc 2687 70bd
00000070: f909 08bd 6253 8abd a0a5 c73c 4259 3a3d
00000080: ffb7 4c3c c19e 903d 4317 21be 910b 6ebc
00000090: 78e5 84bd 7c6a 66be 28bd b4bc 7d89 ecbb
000000a0: e031 7b3c 8dc4 ec3d afc1 16be 0f55 34be
000000b0: 1802 a83c ef04 22be 798c 85bd 068e 5a3e
000000c0: fc08 d43c aa4e 78bc c8df 0cbd f1fd 72bd
000000d0: 3b6b 123d 9747 9bbd e843 313b 0130 e3bd
000000e0: 53b1 133c 4ccf 87bc 4f3a 003e 3eaa cdbc
000000f0: 9cfd e53d c26f 0fbe baae a43c d05d 0abd
00000100: d392 c7be 3c85 813c ae8f ad3d 290f e63d
00000110: 34af c93b 4181 17bd 4eef 0cbc 34ed 11be
00000120: d19b 35bd 0d5c ab3c b6a3 9ebc c851 0c3e
00000130: 61d7 253e e4b9 febc 214c 503c c64e 9c3d
00000140: c544 3ebd 5bbb 82bc faf3 c83c b848 fcbd
00000150: 159e 7fbe c2ea 22bd 5aa7 413c 7b3a 933c
00000160: c3db abbd dcce 153d b9f0 ed38 2306 fc3c
00000170: 7c5e 82bc 9389 d8bc c39e d33d db68 1a3d
00000180: 8e41 f9bc 7d8c 0f3c 194c a33c d06e 1f3d
00000190: 56bb 3dbd 5f1e e9bd 9fa1 923c 5c7f b8bd
000001a0: 334e 853c 83ce 643d 36eb 6e3c dc9b 54bc
000001b0: d269 22bd 3dc9 db3c a7b2 703c ab88 7a3d
000001c0: eb55 0b3c 39e6 cc3c e799 f53d e3fa a5bc
000001d0: dde4 b13c 83d7 3cbe 5480 e0bc 5e86 96bc
000001e0: e310 473d 2e5c 533d 8616 20bd 0eba c73c
000001f0: 6da1 6b3c 15ec 513c 882c f93c 2720 31bc
-0.020334376 -0.07119526 -0.012262353 0.01429312 0.038033552 0.03713865 -0.043892484 -0.17907584
-0.13333395 -0.027829872 -0.06309192 -0.058585946 -0.06808163 0.085531056 0.012172104 0.09279711
0.02200358 -0.030488972 -0.026059004 -0.0150404535 0.18937773 -0.08783978 0.058810625 0.026904771
0.054470725 0.03897216 -0.018665798 -0.058722638 -0.033212636 -0.06754185 0.024370968 0.04549528
0.01249504 0.0706153 -0.1573153 -0.014529125 -0.0648908 -0.22501558 -0.022062853 -0.0072185383
0.015331715 0.115609266 -0.14722322 -0.17610572 0.02050881 -0.15822195 -0.06520934 0.2134324
0.02588319 -0.015155474 -0.034393102 -0.05932421 0.035746794 -0.07582014 0.0027048532 -0.110931404
0.009014445 -0.016578339 0.12522243 -0.025105592 0.11230013 -0.14007476 0.020102847 -0.033780873
-0.38979205 0.015810601 0.0847467 0.1123336 0.006154919 -0.0369885 -0.008601977 -0.14250642
-0.04433805 0.020917917 -0.019365173 0.13703072 0.16195442 -0.031094499 0.012713463 0.07632212
-0.046452302 -0.015958479 0.0245304 -0.123185575 -0.24962647 -0.039774664 0.011819685 0.017972222
-0.083915256 0.03657423 0.00011345879 0.030764645 -0.015914194 -0.026432788 0.10333016 0.037697654
-0.030426767 0.008761522 0.019933747 0.03892404 -0.046321236 -0.11382746 0.017899333 -0.09008667
0.01627264 0.055861007 0.014582446 -0.012976613 -0.0396517 0.026829356 0.014691032 0.061165493
0.008504371 0.025012122 0.11992245 -0.020261234 0.021715576 -0.18441586 -0.027404942 -0.018374618
0.04860009 0.05160158 -0.03908398 0.02438071 0.014381749 0.012812634 0.030416742 -0.010810888
